…
[10:23:51.301430] ### END LOAD ###
[10:23:51.301495] ###############
[10:23:51.301497] # Build model #
[10:23:51.301499] ###############
[10:23:52.466115] ==================================================================================================================================
Layer (type:depth-idx)                                  Input Shape               Output Shape              Param #
==================================================================================================================================
U_Net                                                   [1, 3, 20, 128, 128]      [1, 2, 20, 128, 128]      --
├─ModuleList: 1-7                                       --                        --                        (recursive)
│    └─DoubleConvBlock: 2-1                             [1, 3, 20, 128, 128]      [1, 16, 20, 128, 128]     --
│    │    └─Sequential: 3-1                             [1, 3, 20, 128, 128]      [1, 16, 20, 128, 128]     --
│    │    │    └─ConvBlock: 4-1                         [1, 3, 20, 128, 128]      [1, 16, 20, 128, 128]     --
│    │    │    │    └─Sequential: 5-1                   [1, 3, 20, 128, 128]      [1, 16, 20, 128, 128]     --
│    │    │    │    │    └─Conv3d: 6-1                  [1, 3, 20, 128, 128]      [1, 16, 20, 128, 128]     1,312
│    │    │    │    │    └─BatchNorm3d: 6-2             [1, 16, 20, 128, 128]     [1, 16, 20, 128, 128]     32
│    │    │    │    │    └─ELU: 6-3                     [1, 16, 20, 128, 128]     [1, 16, 20, 128, 128]     --
│    │    │    └─ConvBlock: 4-2                         [1, 16, 20, 128, 128]     [1, 16, 20, 128, 128]     --
│    │    │    │    └─Sequential: 5-2                   [1, 16, 20, 128, 128]     [1, 16, 20, 128, 128]     --
│    │    │    │    │    └─Conv3d: 6-4                  [1, 16, 20, 128, 128]     [1, 16, 20, 128, 128]     6,928
│    │    │    │    │    └─BatchNorm3d: 6-5             [1, 16, 20, 128, 128]     [1, 16, 20, 128, 128]     32
│    │    │    │    │    └─ELU: 6-6                     [1, 16, 20, 128, 128]     [1, 16, 20, 128, 128]     --
├─ModuleList: 1-8                                       --                        --                        --
│    └─MaxPool3d: 2-2                                   [1, 16, 20, 128, 128]     [1, 16, 20, 64, 64]       --
├─ModuleList: 1-7                                       --                        --                        (recursive)
│    └─DoubleConvBlock: 2-3                             [1, 16, 20, 64, 64]       [1, 32, 20, 64, 64]       --
│    │    └─Sequential: 3-2                             [1, 16, 20, 64, 64]       [1, 32, 20, 64, 64]       --
│    │    │    └─ConvBlock: 4-3                         [1, 16, 20, 64, 64]       [1, 32, 20, 64, 64]       --
│    │    │    │    └─Sequential: 5-3                   [1, 16, 20, 64, 64]       [1, 32, 20, 64, 64]       --
│    │    │    │    │    └─Conv3d: 6-7                  [1, 16, 20, 64, 64]       [1, 32, 20, 64, 64]       13,856
│    │    │    │    │    └─BatchNorm3d: 6-8             [1, 32, 20, 64, 64]       [1, 32, 20, 64, 64]       64
│    │    │    │    │    └─ELU: 6-9                     [1, 32, 20, 64, 64]       [1, 32, 20, 64, 64]       --
│    │    │    └─ConvBlock: 4-4                         [1, 32, 20, 64, 64]       [1, 32, 20, 64, 64]       --
│    │    │    │    └─Sequential: 5-4                   [1, 32, 20, 64, 64]       [1, 32, 20, 64, 64]       --
│    │    │    │    │    └─Conv3d: 6-10                 [1, 32, 20, 64, 64]       [1, 32, 20, 64, 64]       27,680
│    │    │    │    │    └─BatchNorm3d: 6-11            [1, 32, 20, 64, 64]       [1, 32, 20, 64, 64]       64
│    │    │    │    │    └─ELU: 6-12                    [1, 32, 20, 64, 64]       [1, 32, 20, 64, 64]       --
├─ModuleList: 1-8                                       --                        --                        --
│    └─MaxPool3d: 2-4                                   [1, 32, 20, 64, 64]       [1, 32, 20, 32, 32]       --
├─ModuleList: 1-7                                       --                        --                        (recursive)
│    └─DoubleConvBlock: 2-5                             [1, 32, 20, 32, 32]       [1, 64, 20, 32, 32]       --
│    │    └─Sequential: 3-3                             [1, 32, 20, 32, 32]       [1, 64, 20, 32, 32]       --
│    │    │    └─ConvBlock: 4-5                         [1, 32, 20, 32, 32]       [1, 64, 20, 32, 32]       --
│    │    │    │    └─Sequential: 5-5                   [1, 32, 20, 32, 32]       [1, 64, 20, 32, 32]       --
│    │    │    │    │    └─Conv3d: 6-13                 [1, 32, 20, 32, 32]       [1, 64, 20, 32, 32]       55,360
│    │    │    │    │    └─BatchNorm3d: 6-14            [1, 64, 20, 32, 32]       [1, 64, 20, 32, 32]       128
│    │    │    │    │    └─ELU: 6-15                    [1, 64, 20, 32, 32]       [1, 64, 20, 32, 32]       --
│    │    │    └─ConvBlock: 4-6                         [1, 64, 20, 32, 32]       [1, 64, 20, 32, 32]       --
│    │    │    │    └─Sequential: 5-6                   [1, 64, 20, 32, 32]       [1, 64, 20, 32, 32]       --
│    │    │    │    │    └─Conv3d: 6-16                 [1, 64, 20, 32, 32]       [1, 64, 20, 32, 32]       110,656
│    │    │    │    │    └─BatchNorm3d: 6-17            [1, 64, 20, 32, 32]       [1, 64, 20, 32, 32]       128
│    │    │    │    │    └─ELU: 6-18                    [1, 64, 20, 32, 32]       [1, 64, 20, 32, 32]       --
├─ModuleList: 1-8                                       --                        --                        --
│    └─MaxPool3d: 2-6                                   [1, 64, 20, 32, 32]       [1, 64, 20, 16, 16]       --
├─ModuleList: 1-7                                       --                        --                        (recursive)
│    └─DoubleConvBlock: 2-7                             [1, 64, 20, 16, 16]       [1, 128, 20, 16, 16]      --
│    │    └─Sequential: 3-4                             [1, 64, 20, 16, 16]       [1, 128, 20, 16, 16]      --
│    │    │    └─ConvBlock: 4-7                         [1, 64, 20, 16, 16]       [1, 128, 20, 16, 16]      --
│    │    │    │    └─Sequential: 5-7                   [1, 64, 20, 16, 16]       [1, 128, 20, 16, 16]      --
│    │    │    │    │    └─Conv3d: 6-19                 [1, 64, 20, 16, 16]       [1, 128, 20, 16, 16]      221,312
│    │    │    │    │    └─BatchNorm3d: 6-20            [1, 128, 20, 16, 16]      [1, 128, 20, 16, 16]      256
│    │    │    │    │    └─ELU: 6-21                    [1, 128, 20, 16, 16]      [1, 128, 20, 16, 16]      --
│    │    │    └─ConvBlock: 4-8                         [1, 128, 20, 16, 16]      [1, 128, 20, 16, 16]      --
│    │    │    │    └─Sequential: 5-8                   [1, 128, 20, 16, 16]      [1, 128, 20, 16, 16]      --
│    │    │    │    │    └─Conv3d: 6-22                 [1, 128, 20, 16, 16]      [1, 128, 20, 16, 16]      442,496
│    │    │    │    │    └─BatchNorm3d: 6-23            [1, 128, 20, 16, 16]      [1, 128, 20, 16, 16]      256
│    │    │    │    │    └─ELU: 6-24                    [1, 128, 20, 16, 16]      [1, 128, 20, 16, 16]      --
├─ModuleList: 1-8                                       --                        --                        --
│    └─MaxPool3d: 2-8                                   [1, 128, 20, 16, 16]      [1, 128, 20, 8, 8]        --
├─DoubleConvBlock: 1-9                                  [1, 128, 20, 8, 8]        [1, 256, 20, 8, 8]        --
│    └─Sequential: 2-9                                  [1, 128, 20, 8, 8]        [1, 256, 20, 8, 8]        --
│    │    └─ConvBlock: 3-5                              [1, 128, 20, 8, 8]        [1, 256, 20, 8, 8]        --
│    │    │    └─Sequential: 4-9                        [1, 128, 20, 8, 8]        [1, 256, 20, 8, 8]        --
│    │    │    │    └─Conv3d: 5-9                       [1, 128, 20, 8, 8]        [1, 256, 20, 8, 8]        884,992
│    │    │    │    └─BatchNorm3d: 5-10                 [1, 256, 20, 8, 8]        [1, 256, 20, 8, 8]        512
│    │    │    │    └─ELU: 5-11                         [1, 256, 20, 8, 8]        [1, 256, 20, 8, 8]        --
│    │    └─ConvBlock: 3-6                              [1, 256, 20, 8, 8]        [1, 256, 20, 8, 8]        --
│    │    │    └─Sequential: 4-10                       [1, 256, 20, 8, 8]        [1, 256, 20, 8, 8]        --
│    │    │    │    └─Conv3d: 5-12                      [1, 256, 20, 8, 8]        [1, 256, 20, 8, 8]        1,769,728
│    │    │    │    └─BatchNorm3d: 5-13                 [1, 256, 20, 8, 8]        [1, 256, 20, 8, 8]        512
│    │    │    │    └─ELU: 5-14                         [1, 256, 20, 8, 8]        [1, 256, 20, 8, 8]        --
├─ModuleList: 1-10                                      --                        --                        --
│    └─UpBlock: 2-10                                    [1, 256, 20, 8, 8]        [1, 128, 20, 16, 16]      --
│    │    └─Sequential: 3-7                             [1, 256, 20, 8, 8]        [1, 128, 20, 16, 16]      --
│    │    │    └─ConvTranspose3d: 4-11                  [1, 256, 20, 8, 8]        [1, 128, 20, 16, 16]      131,200
│    │    │    └─BatchNorm3d: 4-12                      [1, 128, 20, 16, 16]      [1, 128, 20, 16, 16]      256
│    │    │    └─ELU: 4-13                              [1, 128, 20, 16, 16]      [1, 128, 20, 16, 16]      --
│    │    └─DoubleConvBlock: 3-8                        [1, 256, 20, 16, 16]      [1, 128, 20, 16, 16]      --
│    │    │    └─Sequential: 4-14                       [1, 256, 20, 16, 16]      [1, 128, 20, 16, 16]      --
│    │    │    │    └─ConvBlock: 5-15                   [1, 256, 20, 16, 16]      [1, 128, 20, 16, 16]      --
│    │    │    │    │    └─Sequential: 6-25             [1, 256, 20, 16, 16]      [1, 128, 20, 16, 16]      --
│    │    │    │    │    │    └─Conv3d: 7-1             [1, 256, 20, 16, 16]      [1, 128, 20, 16, 16]      884,864
│    │    │    │    │    │    └─BatchNorm3d: 7-2        [1, 128, 20, 16, 16]      [1, 128, 20, 16, 16]      256
│    │    │    │    │    │    └─ELU: 7-3                [1, 128, 20, 16, 16]      [1, 128, 20, 16, 16]      --
│    │    │    │    └─ConvBlock: 5-16                   [1, 128, 20, 16, 16]      [1, 128, 20, 16, 16]      --
│    │    │    │    │    └─Sequential: 6-26             [1, 128, 20, 16, 16]      [1, 128, 20, 16, 16]      --
│    │    │    │    │    │    └─Conv3d: 7-4             [1, 128, 20, 16, 16]      [1, 128, 20, 16, 16]      442,496
│    │    │    │    │    │    └─BatchNorm3d: 7-5        [1, 128, 20, 16, 16]      [1, 128, 20, 16, 16]      256
│    │    │    │    │    │    └─ELU: 7-6                [1, 128, 20, 16, 16]      [1, 128, 20, 16, 16]      --
│    └─UpBlock: 2-11                                    [1, 128, 20, 16, 16]      [1, 64, 20, 32, 32]       --
│    │    └─Sequential: 3-9                             [1, 128, 20, 16, 16]      [1, 64, 20, 32, 32]       --
│    │    │    └─ConvTranspose3d: 4-15                  [1, 128, 20, 16, 16]      [1, 64, 20, 32, 32]       32,832
│    │    │    └─BatchNorm3d: 4-16                      [1, 64, 20, 32, 32]       [1, 64, 20, 32, 32]       128
│    │    │    └─ELU: 4-17                              [1, 64, 20, 32, 32]       [1, 64, 20, 32, 32]       --
│    │    └─DoubleConvBlock: 3-10                       [1, 128, 20, 32, 32]      [1, 64, 20, 32, 32]       --
│    │    │    └─Sequential: 4-18                       [1, 128, 20, 32, 32]      [1, 64, 20, 32, 32]       --
│    │    │    │    └─ConvBlock: 5-17                   [1, 128, 20, 32, 32]      [1, 64, 20, 32, 32]       --
│    │    │    │    │    └─Sequential: 6-27             [1, 128, 20, 32, 32]      [1, 64, 20, 32, 32]       --
│    │    │    │    │    │    └─Conv3d: 7-7             [1, 128, 20, 32, 32]      [1, 64, 20, 32, 32]       221,248
│    │    │    │    │    │    └─BatchNorm3d: 7-8        [1, 64, 20, 32, 32]       [1, 64, 20, 32, 32]       128
│    │    │    │    │    │    └─ELU: 7-9                [1, 64, 20, 32, 32]       [1, 64, 20, 32, 32]       --
│    │    │    │    └─ConvBlock: 5-18                   [1, 64, 20, 32, 32]       [1, 64, 20, 32, 32]       --
│    │    │    │    │    └─Sequential: 6-28             [1, 64, 20, 32, 32]       [1, 64, 20, 32, 32]       --
│    │    │    │    │    │    └─Conv3d: 7-10            [1, 64, 20, 32, 32]       [1, 64, 20, 32, 32]       110,656
│    │    │    │    │    │    └─BatchNorm3d: 7-11       [1, 64, 20, 32, 32]       [1, 64, 20, 32, 32]       128
│    │    │    │    │    │    └─ELU: 7-12               [1, 64, 20, 32, 32]       [1, 64, 20, 32, 32]       --
│    └─UpBlock: 2-12                                    [1, 64, 20, 32, 32]       [1, 32, 20, 64, 64]       --
│    │    └─Sequential: 3-11                            [1, 64, 20, 32, 32]       [1, 32, 20, 64, 64]       --
│    │    │    └─ConvTranspose3d: 4-19                  [1, 64, 20, 32, 32]       [1, 32, 20, 64, 64]       8,224
│    │    │    └─BatchNorm3d: 4-20                      [1, 32, 20, 64, 64]       [1, 32, 20, 64, 64]       64
│    │    │    └─ELU: 4-21                              [1, 32, 20, 64, 64]       [1, 32, 20, 64, 64]       --
│    │    └─DoubleConvBlock: 3-12                       [1, 64, 20, 64, 64]       [1, 32, 20, 64, 64]       --
│    │    │    └─Sequential: 4-22                       [1, 64, 20, 64, 64]       [1, 32, 20, 64, 64]       --
│    │    │    │    └─ConvBlock: 5-19                   [1, 64, 20, 64, 64]       [1, 32, 20, 64, 64]       --
│    │    │    │    │    └─Sequential: 6-29             [1, 64, 20, 64, 64]       [1, 32, 20, 64, 64]       --
│    │    │    │    │    │    └─Conv3d: 7-13            [1, 64, 20, 64, 64]       [1, 32, 20, 64, 64]       55,328
│    │    │    │    │    │    └─BatchNorm3d: 7-14       [1, 32, 20, 64, 64]       [1, 32, 20, 64, 64]       64
│    │    │    │    │    │    └─ELU: 7-15               [1, 32, 20, 64, 64]       [1, 32, 20, 64, 64]       --
│    │    │    │    └─ConvBlock: 5-20                   [1, 32, 20, 64, 64]       [1, 32, 20, 64, 64]       --
│    │    │    │    │    └─Sequential: 6-30             [1, 32, 20, 64, 64]       [1, 32, 20, 64, 64]       --
│    │    │    │    │    │    └─Conv3d: 7-16            [1, 32, 20, 64, 64]       [1, 32, 20, 64, 64]       27,680
│    │    │    │    │    │    └─BatchNorm3d: 7-17       [1, 32, 20, 64, 64]       [1, 32, 20, 64, 64]       64
│    │    │    │    │    │    └─ELU: 7-18               [1, 32, 20, 64, 64]       [1, 32, 20, 64, 64]       --
│    └─UpBlock: 2-13                                    [1, 32, 20, 64, 64]       [1, 16, 20, 128, 128]     --
│    │    └─Sequential: 3-13                            [1, 32, 20, 64, 64]       [1, 16, 20, 128, 128]     --
│    │    │    └─ConvTranspose3d: 4-23                  [1, 32, 20, 64, 64]       [1, 16, 20, 128, 128]     2,064
│    │    │    └─BatchNorm3d: 4-24                      [1, 16, 20, 128, 128]     [1, 16, 20, 128, 128]     32
│    │    │    └─ELU: 4-25                              [1, 16, 20, 128, 128]     [1, 16, 20, 128, 128]     --
│    │    └─DoubleConvBlock: 3-14                       [1, 32, 20, 128, 128]     [1, 16, 20, 128, 128]     --
│    │    │    └─Sequential: 4-26                       [1, 32, 20, 128, 128]     [1, 16, 20, 128, 128]     --
│    │    │    │    └─ConvBlock: 5-21                   [1, 32, 20, 128, 128]     [1, 16, 20, 128, 128]     --
│    │    │    │    │    └─Sequential: 6-31             [1, 32, 20, 128, 128]     [1, 16, 20, 128, 128]     --
│    │    │    │    │    │    └─Conv3d: 7-19            [1, 32, 20, 128, 128]     [1, 16, 20, 128, 128]     13,840
│    │    │    │    │    │    └─BatchNorm3d: 7-20       [1, 16, 20, 128, 128]     [1, 16, 20, 128, 128]     32
│    │    │    │    │    │    └─ELU: 7-21               [1, 16, 20, 128, 128]     [1, 16, 20, 128, 128]     --
│    │    │    │    └─ConvBlock: 5-22                   [1, 16, 20, 128, 128]     [1, 16, 20, 128, 128]     --
│    │    │    │    │    └─Sequential: 6-32             [1, 16, 20, 128, 128]     [1, 16, 20, 128, 128]     --
│    │    │    │    │    │    └─Conv3d: 7-22            [1, 16, 20, 128, 128]     [1, 16, 20, 128, 128]     6,928
│    │    │    │    │    │    └─BatchNorm3d: 7-23       [1, 16, 20, 128, 128]     [1, 16, 20, 128, 128]     32
│    │    │    │    │    │    └─ELU: 7-24               [1, 16, 20, 128, 128]     [1, 16, 20, 128, 128]     --
├─Conv3d: 1-11                                          [1, 16, 20, 128, 128]     [1, 2, 20, 128, 128]      34
==================================================================================================================================
Total params: 5,475,138
Trainable params: 5,475,138
Non-trainable params: 0
Total mult-adds (Units.GIGABYTES): 46.20
==================================================================================================================================
Input size (MB): 3.93
…
