…
      )
      (2): ConvPass(
        (conv_pass): Sequential(
          (0): Conv3d(630, 450, kernel_size=(3, 3, 3), stride=(1, 1, 1))
          (1): ReLU()
          (2): Conv3d(450, 450, kernel_size=(3, 3, 3), stride=(1, 1, 1))
          (3): ReLU()
        )
      )
    )
  )
)
===============================================================================================
Layer (type:depth-idx)                        Output Shape              Param #
===============================================================================================
UNet                                          [15, 312, 52, 52, 52]     --
├─ModuleList: 1-7                             --                        (recursive)
│    └─ConvPass: 2-1                          [15, 20, 136, 136, 136]   --
│    │    └─Sequential: 3-1                   [15, 20, 136, 136, 136]   --
│    │    │    └─Conv3d: 4-1                  [15, 20, 138, 138, 138]   1,640
│    │    │    └─ReLU: 4-2                    [15, 20, 138, 138, 138]   --
│    │    │    └─Conv3d: 4-3                  [15, 20, 136, 136, 136]   10,820
│    │    │    └─ReLU: 4-4                    [15, 20, 136, 136, 136]   --
├─ModuleList: 1-6                             --                        --
│    └─Downsample: 2-2                        [15, 20, 68, 68, 68]      --
│    │    └─MaxPool3d: 3-2                    [15, 20, 68, 68, 68]      --
├─ModuleList: 1-7                             --                        (recursive)
│    └─ConvPass: 2-3                          [15, 60, 64, 64, 64]      --
│    │    └─Sequential: 3-3                   [15, 60, 64, 64, 64]      --
│    │    │    └─Conv3d: 4-5                  [15, 60, 66, 66, 66]      32,460
│    │    │    └─ReLU: 4-6                    [15, 60, 66, 66, 66]      --
│    │    │    └─Conv3d: 4-7                  [15, 60, 64, 64, 64]      97,260
│    │    │    └─ReLU: 4-8                    [15, 60, 64, 64, 64]      --
├─ModuleList: 1-6                             --                        --
│    └─Downsample: 2-4                        [15, 60, 32, 32, 32]      --
│    │    └─MaxPool3d: 3-4                    [15, 60, 32, 32, 32]      --
├─ModuleList: 1-7                             --                        (recursive)
│    └─ConvPass: 2-5                          [15, 180, 28, 28, 28]     --
│    │    └─Sequential: 3-5                   [15, 180, 28, 28, 28]     --
│    │    │    └─Conv3d: 4-9                  [15, 180, 30, 30, 30]     291,780
│    │    │    └─ReLU: 4-10                   [15, 180, 30, 30, 30]     --
│    │    │    └─Conv3d: 4-11                 [15, 180, 28, 28, 28]     874,980
│    │    │    └─ReLU: 4-12                   [15, 180, 28, 28, 28]     --
├─ModuleList: 1-6                             --                        --
│    └─Downsample: 2-6                        [15, 180, 14, 14, 14]     --
│    │    └─MaxPool3d: 3-6                    [15, 180, 14, 14, 14]     --
├─ModuleList: 1-7                             --                        (recursive)
│    └─ConvPass: 2-7                          [15, 540, 10, 10, 10]     --
│    │    └─Sequential: 3-7                   [15, 540, 10, 10, 10]     --
│    │    │    └─Conv3d: 4-13                 [15, 540, 12, 12, 12]     2,624,940
│    │    │    └─ReLU: 4-14                   [15, 540, 12, 12, 12]     --
│    │    │    └─Conv3d: 4-15                 [15, 540, 10, 10, 10]     7,873,740
│    │    │    └─ReLU: 4-16                   [15, 540, 10, 10, 10]     --
├─ModuleList: 1-12                            --                        (recursive)
│    └─ModuleList: 2-12                       --                        (recursive)
│    │    └─Upsample: 3-8                     [15, 630, 20, 20, 20]     180
│    │    │    └─ConvTranspose3d: 4-17        [15, 450, 20, 20, 20]     1,944,450
│    │    │    └─ReLU: 4-18                   [15, 450, 20, 20, 20]     --
├─ModuleList: 1-13                            --                        (recursive)
│    └─ModuleList: 2-13                       --                        (recursive)
│    │    └─ConvPass: 3-9                     [15, 450, 16, 16, 16]     --
│    │    │    └─Sequential: 4-19             [15, 450, 16, 16, 16]     --
│    │    │    │    └─Conv3d: 5-1             [15, 450, 18, 18, 18]     7,654,950
│    │    │    │    └─ReLU: 5-2               [15, 450, 18, 18, 18]     --
│    │    │    │    └─Conv3d: 5-3             [15, 450, 16, 16, 16]     5,467,950
│    │    │    │    └─ReLU: 5-4               [15, 450, 16, 16, 16]     --
├─ModuleList: 1-12                            --                        (recursive)
│    └─ModuleList: 2-12                       --                        (recursive)
│    │    └─Upsample: 3-10                    [15, 435, 32, 32, 32]     60
│    │    │    └─ConvTranspose3d: 4-20        [15, 375, 32, 32, 32]     1,350,375
│    │    │    └─ReLU: 4-21                   [15, 375, 32, 32, 32]     --
├─ModuleList: 1-13                            --                        (recursive)
│    └─ModuleList: 2-13                       --                        (recursive)
│    │    └─ConvPass: 3-11                    [15, 375, 28, 28, 28]     --
│    │    │    └─Sequential: 4-22             [15, 375, 28, 28, 28]     --
│    │    │    │    └─Conv3d: 5-5             [15, 375, 30, 30, 30]     4,404,750
│    │    │    │    └─ReLU: 5-6               [15, 375, 30, 30, 30]     --
│    │    │    │    └─Conv3d: 5-7             [15, 375, 28, 28, 28]     3,797,250
│    │    │    │    └─ReLU: 5-8               [15, 375, 28, 28, 28]     --
├─ModuleList: 1-12                            --                        (recursive)
│    └─ModuleList: 2-12                       --                        (recursive)
│    │    └─Upsample: 3-12                    [15, 332, 56, 56, 56]     20
│    │    │    └─ConvTranspose3d: 4-23        [15, 312, 56, 56, 56]     936,312
│    │    │    └─ReLU: 4-24                   [15, 312, 56, 56, 56]     --
├─ModuleList: 1-13                            --                        (recursive)
│    └─ModuleList: 2-13                       --                        (recursive)
│    │    └─ConvPass: 3-13                    [15, 312, 52, 52, 52]     --
│    │    │    └─Sequential: 4-25             [15, 312, 52, 52, 52]     --
│    │    │    │    └─Conv3d: 5-9             [15, 312, 54, 54, 54]     2,797,080
│    │    │    │    └─ReLU: 5-10              [15, 312, 54, 54, 54]     --
│    │    │    │    └─Conv3d: 5-11            [15, 312, 52, 52, 52]     2,628,600
│    │    │    │    └─ReLU: 5-12              [15, 312, 52, 52, 52]     --
===============================================================================================
Total params: 42,789,597
Trainable params: 42,789,597
Non-trainable params: 0
Total mult-adds (T): 21.14
===============================================================================================
Input size (MB): 493.92
Forward/backward pass size (MB): 39916.40
Params size (MB): 171.16
Estimated Total Size (MB): 40581.48
…
        (2): Conv3d(64, 64, kernel_size=(3, 3, 3), stride=(1, 1, 1), padding=(1, 1, 1))
        (3): ReLU()
      )
    )
    (1): ConvPass(
      (conv_pass): Sequential(
        (0): Conv3d(1, 1, kernel_size=(3, 3, 3), stride=(1, 1, 1), padding=(1, 1, 1))
        (1): Conv3d(1, 1, kernel_size=(3, 3, 3), stride=(1, 1, 1), padding=(1, 1, 1))
      )
    )
  )
)
==========================================================================================
Layer (type:depth-idx)                   Output Shape              Param #
==========================================================================================
Autoencoder                              [15, 1, 7, 7, 7]          779,094
├─ConvPass: 1-1                          [15, 128, 2, 2, 2]        --
│    └─Sequential: 2-1                   [15, 128, 2, 2, 2]        --
│    │    └─Conv3d: 3-1                  [15, 128, 2, 2, 2]        2,944
│    │    └─ReLU: 3-2                    [15, 128, 2, 2, 2]        --
├─ModuleList: 1-4                        --                        (recursive)
│    └─Upsample: 2-2                     [15, 64, 4, 4, 4]         --
│    │    └─Sequential: 3-3              [15, 64, 4, 4, 4]         --
│    │    │    └─Upsample: 4-1           [15, 128, 4, 4, 4]        --
│    │    │    └─Conv3d: 4-2             [15, 64, 4, 4, 4]         8,256
├─ModuleList: 1-5                        --                        (recursive)
│    └─ConvPass: 2-3                     [15, 64, 4, 4, 4]         --
│    │    └─Sequential: 3-4              [15, 64, 4, 4, 4]         --
│    │    │    └─Conv3d: 4-3             [15, 64, 4, 4, 4]         110,656
│    │    │    └─ReLU: 4-4               [15, 64, 4, 4, 4]         --
│    │    │    └─Conv3d: 4-5             [15, 64, 4, 4, 4]         110,656
│    │    │    └─ReLU: 4-6               [15, 64, 4, 4, 4]         --
├─ModuleList: 1-4                        --                        (recursive)
│    └─Upsample: 2-4                     [15, 1, 8, 8, 8]          --
│    │    └─Sequential: 3-5              [15, 1, 8, 8, 8]          --
│    │    │    └─Upsample: 4-7           [15, 64, 8, 8, 8]         --
│    │    │    └─Conv3d: 4-8             [15, 1, 8, 8, 8]          65
├─ModuleList: 1-5                        --                        (recursive)
│    └─ConvPass: 2-5                     [15, 1, 8, 8, 8]          --
│    │    └─Sequential: 3-6              [15, 1, 8, 8, 8]          --
│    │    │    └─Conv3d: 4-9             [15, 1, 8, 8, 8]          28
│    │    │    └─Conv3d: 4-10            [15, 1, 8, 8, 8]          28
==========================================================================================
Total params: 1,011,727
Trainable params: 1,011,727
Non-trainable params: 0
Total mult-adds (M): 221.67
==========================================================================================
Input size (MB): 0.01
Forward/backward pass size (MB): 1.78
Params size (MB): 0.93
Estimated Total Size (MB): 2.72
…
