…
      )
      (2): ConvPass(
        (conv_pass): Sequential(
          (0): Conv3d(630, 450, kernel_size=(3, 3, 3), stride=(1, 1, 1))
          (1): ReLU()
          (2): Conv3d(450, 450, kernel_size=(3, 3, 3), stride=(1, 1, 1))
          (3): ReLU()
        )
      )
    )
  )
)
===============================================================================================
Layer (type:depth-idx)                        Output Shape              Param #
===============================================================================================
UNet                                          [4, 312, 52, 52, 52]      --
├─ModuleList: 1-7                             --                        (recursive)
│    └─ConvPass: 2-1                          [4, 20, 136, 136, 136]    --
│    │    └─Sequential: 3-1                   [4, 20, 136, 136, 136]    --
│    │    │    └─Conv3d: 4-1                  [4, 20, 138, 138, 138]    1,640
│    │    │    └─ReLU: 4-2                    [4, 20, 138, 138, 138]    --
│    │    │    └─Conv3d: 4-3                  [4, 20, 136, 136, 136]    10,820
│    │    │    └─ReLU: 4-4                    [4, 20, 136, 136, 136]    --
├─ModuleList: 1-6                             --                        --
│    └─Downsample: 2-2                        [4, 20, 68, 68, 68]       --
│    │    └─MaxPool3d: 3-2                    [4, 20, 68, 68, 68]       --
├─ModuleList: 1-7                             --                        (recursive)
│    └─ConvPass: 2-3                          [4, 60, 64, 64, 64]       --
│    │    └─Sequential: 3-3                   [4, 60, 64, 64, 64]       --
│    │    │    └─Conv3d: 4-5                  [4, 60, 66, 66, 66]       32,460
│    │    │    └─ReLU: 4-6                    [4, 60, 66, 66, 66]       --
│    │    │    └─Conv3d: 4-7                  [4, 60, 64, 64, 64]       97,260
│    │    │    └─ReLU: 4-8                    [4, 60, 64, 64, 64]       --
├─ModuleList: 1-6                             --                        --
│    └─Downsample: 2-4                        [4, 60, 32, 32, 32]       --
│    │    └─MaxPool3d: 3-4                    [4, 60, 32, 32, 32]       --
├─ModuleList: 1-7                             --                        (recursive)
│    └─ConvPass: 2-5                          [4, 180, 28, 28, 28]      --
│    │    └─Sequential: 3-5                   [4, 180, 28, 28, 28]      --
│    │    │    └─Conv3d: 4-9                  [4, 180, 30, 30, 30]      291,780
│    │    │    └─ReLU: 4-10                   [4, 180, 30, 30, 30]      --
│    │    │    └─Conv3d: 4-11                 [4, 180, 28, 28, 28]      874,980
│    │    │    └─ReLU: 4-12                   [4, 180, 28, 28, 28]      --
├─ModuleList: 1-6                             --                        --
│    └─Downsample: 2-6                        [4, 180, 14, 14, 14]      --
│    │    └─MaxPool3d: 3-6                    [4, 180, 14, 14, 14]      --
├─ModuleList: 1-7                             --                        (recursive)
│    └─ConvPass: 2-7                          [4, 540, 10, 10, 10]      --
│    │    └─Sequential: 3-7                   [4, 540, 10, 10, 10]      --
│    │    │    └─Conv3d: 4-13                 [4, 540, 12, 12, 12]      2,624,940
│    │    │    └─ReLU: 4-14                   [4, 540, 12, 12, 12]      --
│    │    │    └─Conv3d: 4-15                 [4, 540, 10, 10, 10]      7,873,740
│    │    │    └─ReLU: 4-16                   [4, 540, 10, 10, 10]      --
├─ModuleList: 1-12                            --                        (recursive)
│    └─ModuleList: 2-12                       --                        (recursive)
│    │    └─Upsample: 3-8                     [4, 630, 20, 20, 20]      180
│    │    │    └─ConvTranspose3d: 4-17        [4, 450, 20, 20, 20]      1,944,450
│    │    │    └─ReLU: 4-18                   [4, 450, 20, 20, 20]      --
├─ModuleList: 1-13                            --                        (recursive)
│    └─ModuleList: 2-13                       --                        (recursive)
│    │    └─ConvPass: 3-9                     [4, 450, 16, 16, 16]      --
│    │    │    └─Sequential: 4-19             [4, 450, 16, 16, 16]      --
│    │    │    │    └─Conv3d: 5-1             [4, 450, 18, 18, 18]      7,654,950
│    │    │    │    └─ReLU: 5-2               [4, 450, 18, 18, 18]      --
│    │    │    │    └─Conv3d: 5-3             [4, 450, 16, 16, 16]      5,467,950
│    │    │    │    └─ReLU: 5-4               [4, 450, 16, 16, 16]      --
├─ModuleList: 1-12                            --                        (recursive)
│    └─ModuleList: 2-12                       --                        (recursive)
│    │    └─Upsample: 3-10                    [4, 435, 32, 32, 32]      60
│    │    │    └─ConvTranspose3d: 4-20        [4, 375, 32, 32, 32]      1,350,375
│    │    │    └─ReLU: 4-21                   [4, 375, 32, 32, 32]      --
├─ModuleList: 1-13                            --                        (recursive)
│    └─ModuleList: 2-13                       --                        (recursive)
│    │    └─ConvPass: 3-11                    [4, 375, 28, 28, 28]      --
│    │    │    └─Sequential: 4-22             [4, 375, 28, 28, 28]      --
│    │    │    │    └─Conv3d: 5-5             [4, 375, 30, 30, 30]      4,404,750
│    │    │    │    └─ReLU: 5-6               [4, 375, 30, 30, 30]      --
│    │    │    │    └─Conv3d: 5-7             [4, 375, 28, 28, 28]      3,797,250
│    │    │    │    └─ReLU: 5-8               [4, 375, 28, 28, 28]      --
├─ModuleList: 1-12                            --                        (recursive)
│    └─ModuleList: 2-12                       --                        (recursive)
│    │    └─Upsample: 3-12                    [4, 332, 56, 56, 56]      20
│    │    │    └─ConvTranspose3d: 4-23        [4, 312, 56, 56, 56]      936,312
│    │    │    └─ReLU: 4-24                   [4, 312, 56, 56, 56]      --
├─ModuleList: 1-13                            --                        (recursive)
│    └─ModuleList: 2-13                       --                        (recursive)
│    │    └─ConvPass: 3-13                    [4, 312, 52, 52, 52]      --
│    │    │    └─Sequential: 4-25             [4, 312, 52, 52, 52]      --
│    │    │    │    └─Conv3d: 5-9             [4, 312, 54, 54, 54]      2,797,080
│    │    │    │    └─ReLU: 5-10              [4, 312, 54, 54, 54]      --
│    │    │    │    └─Conv3d: 5-11            [4, 312, 52, 52, 52]      2,628,600
│    │    │    │    └─ReLU: 5-12              [4, 312, 52, 52, 52]      --
===============================================================================================
Total params: 42,789,597
Trainable params: 42,789,597
Non-trainable params: 0
Total mult-adds (T): 5.64
===============================================================================================
Input size (MB): 131.71
Forward/backward pass size (MB): 10644.37
Params size (MB): 171.16
Estimated Total Size (MB): 10947.24
…
        (2): Conv3d(64, 64, kernel_size=(3, 3, 3), stride=(1, 1, 1), padding=(1, 1, 1))
        (3): ReLU()
      )
    )
    (1): ConvPass(
      (conv_pass): Sequential(
        (0): Conv3d(1, 1, kernel_size=(3, 3, 3), stride=(1, 1, 1), padding=(1, 1, 1))
        (1): Conv3d(1, 1, kernel_size=(3, 3, 3), stride=(1, 1, 1), padding=(1, 1, 1))
      )
    )
  )
)
==========================================================================================
Layer (type:depth-idx)                   Output Shape              Param #
==========================================================================================
Autoencoder                              [4, 1, 7, 7, 7]           779,094
├─ConvPass: 1-1                          [4, 128, 2, 2, 2]         --
│    └─Sequential: 2-1                   [4, 128, 2, 2, 2]         --
│    │    └─Conv3d: 3-1                  [4, 128, 2, 2, 2]         2,944
│    │    └─ReLU: 3-2                    [4, 128, 2, 2, 2]         --
├─ModuleList: 1-4                        --                        (recursive)
│    └─Upsample: 2-2                     [4, 64, 4, 4, 4]          --
│    │    └─Sequential: 3-3              [4, 64, 4, 4, 4]          --
│    │    │    └─Upsample: 4-1           [4, 128, 4, 4, 4]         --
│    │    │    └─Conv3d: 4-2             [4, 64, 4, 4, 4]          8,256
├─ModuleList: 1-5                        --                        (recursive)
│    └─ConvPass: 2-3                     [4, 64, 4, 4, 4]          --
│    │    └─Sequential: 3-4              [4, 64, 4, 4, 4]          --
│    │    │    └─Conv3d: 4-3             [4, 64, 4, 4, 4]          110,656
│    │    │    └─ReLU: 4-4               [4, 64, 4, 4, 4]          --
│    │    │    └─Conv3d: 4-5             [4, 64, 4, 4, 4]          110,656
│    │    │    └─ReLU: 4-6               [4, 64, 4, 4, 4]          --
├─ModuleList: 1-4                        --                        (recursive)
│    └─Upsample: 2-4                     [4, 1, 8, 8, 8]           --
│    │    └─Sequential: 3-5              [4, 1, 8, 8, 8]           --
│    │    │    └─Upsample: 4-7           [4, 64, 8, 8, 8]          --
│    │    │    └─Conv3d: 4-8             [4, 1, 8, 8, 8]           65
├─ModuleList: 1-5                        --                        (recursive)
│    └─ConvPass: 2-5                     [4, 1, 8, 8, 8]           --
│    │    └─Sequential: 3-6              [4, 1, 8, 8, 8]           --
│    │    │    └─Conv3d: 4-9             [4, 1, 8, 8, 8]           28
│    │    │    └─Conv3d: 4-10            [4, 1, 8, 8, 8]           28
==========================================================================================
Total params: 1,011,727
Trainable params: 1,011,727
Non-trainable params: 0
Total mult-adds (M): 59.11
==========================================================================================
Input size (MB): 0.00
Forward/backward pass size (MB): 0.48
Params size (MB): 0.93
Estimated Total Size (MB): 1.41
…
